Mushroom_Classification/best_mlp_model.pth (torch, 24654 bytes, 6 tensors)

fc1.weight f4 [64, 18]
000000 1d 01 55 be ab 35 70 be e0 f9 4d 3e f8 4d a7 3d
       -0.20801206 -0.23457973 0.20114851 0.08169168
000010 5a 6a 5c be 05 09 79 be ef 8a e1 bc 62 97 99 3d
       -0.21524945 -0.24319847 -0.027532069 0.07499577
000020 e9 c5 3d 3d a3 0e 1e be ac d0 29 3d 03 bd 37 be
       0.04633132 -0.15435271 0.04145877 -0.17943196
000030 f3 aa 4d be ba ec 58 3d fe de 33 be 89 94 89 3d
       -0.20084743 0.052960135 -0.17565534 0.06717784
000040 d3 71 ad 3d 34 88 ae 3c d6 5e 4f 3f db 42 00 3e
       0.08468976 0.021305181 0.81004083 0.12525503
000050 b2 f2 15 be d2 04 d8 be 7f 38 c1 bf fd cb c8 3e
       -0.14643362 -0.42191178 -1.5095366 0.3921813
000060 c1 2b a4 3f 3a 13 b0 bc 70 25 8f be a7 e6 89 3f
       1.2825853 -0.021493543 -0.2795825 1.0773515
000070 45 6a 6b bd a5 c3 9c bd 30 03 5f be d5 8c 84 bd
       -0.057474393 -0.07654504 -0.2177856 -0.06472174
000080 88 b4 33 bf a7 bf fe bd 18 65 aa 3e 1d 39 84 3e
       -0.70197344 -0.124388985 0.33280253 0.25824824
000090 65 59 35 be 09 16 94 3d 21 7d a5 3f 88 cd 02 be
       -0.17709883 0.07230765 1.2928811 -0.12773716
0000a0 b1 db 8a bf 77 b4 b1 bc bf 69 ea 3e 93 02 37 bf
       -1.0848294 -0.021692498 0.45783803 -0.714883
0000b0 c1 aa 08 3e 4d d8 9b 3d 2d 87 46 be 87 e6 0f be
       0.13346387 0.076096155 -0.19387503 -0.14052783
0000c0 bb aa e4 3c 31 bf 1b bf 9a 35 ae bf 42 e9 81 bf
       0.027913442 -0.6083861 -1.3610108 -1.014931
0000d0 20 58 83 bd c4 96 9e be 61 16 0d 3f 94 c6 a9 be
       -0.06413293 -0.309744 0.5511227 -0.33159316
0000e0 ca 0c d8 bd 9a 1b 80 bd 2e b0 ac bd e8 6c 3c 3e
       -0.10549314 -0.062552646 -0.08432041 0.1840092
0000f0 eb 3a bf 3f 26 b3 03 be c9 73 43 3f 26 66 09 bf
       1.4939855 -0.12861308 0.7634855 -0.5367149
000100 1c a9 9c bf c2 b9 e2 be 42 c3 50 bc 87 28 90 3e
       -1.2239108 -0.44282347 -0.012741866 0.2815592
000110 e6 34 6f be 36 fd 73 be 3b 2a 86 3f 51 0e ff 3c
       -0.23360023 -0.23827061 1.0481638 0.031134756
000120 b2 ab 65 3d f6 92 66 be d8 8c e4 bc 42 59 20 be
       0.056071945 -0.22516999 -0.02789919 -0.15659049
000130 ea e2 38 be 1d 36 f5 3c ed 31 d2 bd 80 f8 48 3c
       -0.18055311 0.02993303 -0.10263429 0.012266278
000140 ff 0a 87 bd 44 8e fc bd cb 16 39 3e bc a9 98 bc
       -0.06593894 -0.123318225 0.18075101 -0.018635623
000150 fc 44 2c be 42 24 a1 3c b3 30 56 be 63 ad f2 bd
       -0.1682319 0.01967061 -0.20917015 -0.11849477
000160 e6 0b a4 bc d7 46 1b be d0 c9 8a bd b6 7c d3 3d
       -0.020025205 -0.15163742 -0.06776774 0.10326521
000170 13 c6 d2 3d 4c a6 25 bf 30 98 88 3e 9c 5d 1c bf
       0.10291686 -0.64706874 0.2667861 -0.61080337
000180 18 e2 82 bf 0c 98 49 bd 34 52 f2 be a9 6b 02 3f
       -1.0225248 -0.04921727 -0.4732834 0.50945526
000190 3e c6 5d be 85 c7 02 3f d7 2d 94 3f 2d cb cd 3e
       -0.21657655 0.5108569 1.1576489 0.40194073
0001a0 89 16 c5 3e 62 03 02 3e 6b f7 16 be 3b b1 e3 bd
       0.38493755 0.12696603 -0.1474282 -0.111177884
0001b0 ce 95 ca bc d1 de 67 be f3 3c 86 3d 86 7f 9d 3c
       -0.024729636 -0.22643591 0.06554594 0.019225847
0001c0 37 81 cc bd 2b 6e 5b be 84 6c a2 3d 82 80 19 be
       -0.09985583 -0.21428744 0.07930854 -0.14990428
0001d0 35 50 9d 3c 17 ae f7 3c 8f 88 2d be 3e ae fa bc
       0.019203285 0.03023438 -0.16946624 -0.030600663
0001e0 14 d4 25 3e 90 57 19 be c2 11 e8 bc 77 ad fb bd
       0.16194183 -0.14974809 -0.02832878 -0.12288945
0001f0 32 70 7a 3d 2f af 14 3e be 18 89 3f 28 34 fd bd
       0.061142154 0.14519952 1.0710676 -0.12363464
000200 40 98 04 be 60 5e e6 be 45 ee ff 3e 7f e5 26 3f
       -0.12948704 -0.44993877 0.49986473 0.65193933
000210 ce ab b8 bf 06 b6 44 3e 0d 06 7e 3f 2c 74 91 bd
       -1.4427431 0.19210061 0.9922798 -0.07102236
000220 4b 41 57 be 95 76 d0 be 69 1c 32 3f 79 0c f7 be
       -0.21021001 -0.4071547 0.695746 -0.48251703
000230 75 3d 36 3f e7 2c a2 3d f4 be dc 3e 7f 31 4d 3e
       0.71187526 0.07918721 0.43114436 0.20038413
000240 f8 ed 1d bd 55 26 ad 3d d0 58 70 be 75 e5 b0 bd
       -0.038557023 0.08454577 -0.2347138 -0.086375155
000250 84 6a 59 3d 89 30 38 be 56 1f 21 be e3 b5 32 be
       0.053080097 -0.17987265 -0.1573461 -0.17452197
000260 d7 f1 de bd 6c 52 90 3e 45 a9 4d 3d d7 3f db 3d
       -0.10885971 0.28187883 0.050210256 0.10705536
000270 a0 de bb bd 87 dd f9 bd 83 12 9a be 4b c5 7a be
       -0.09173322 -0.12200456 -0.30092248 -0.24489324
000280 d4 4a 3c bd 24 65 8e be 33 cc 12 3e 22 e0 70 3e
       -0.0459698 -0.2781154 0.14335708 0.23523
000290 d7 37 93 bf d4 02 06 3e 15 78 b5 3f 88 35 b1 be
       -1.1501416 0.13087016 1.4177271 -0.34611154
0002a0 60 bc 9a 3e 6d 1b 97 bd 48 5b f8 be 94 6a 49 3f
       0.30221844 -0.07378278 -0.48507142 0.7867825
0002b0 76 ad 86 3e 16 92 e0 3e 99 80 52 3d 26 71 a2 be
       0.26304215 0.43861455 0.05139217 -0.3172695
0002c0 61 09 2c bf c9 b8 08 3f c5 ad c2 3e 84 7b 3a be
       -0.6720181 0.5340696 0.380232 -0.1821118
0002d0 92 58 29 3f 72 7b e0 bd fa e7 a9 be 3f 99 a3 3d
       0.6615077 -0.10961045 -0.33184797 0.07988214
0002e0 1b 51 4e bd 36 87 d4 3e ed 72 c7 bf b0 f2 b8 bd
       -0.050370317 0.41509408 -1.5581948 -0.09030664
0002f0 cd 45 22 3c 4d d6 ad be ab ee 71 be 9d 2d ab 3e
       0.009904337 -0.3395256 -0.23626201 0.33433238
000300 1d 5c 5d 3f 0c e0 a2 3d 4a 61 66 bf 8e 0d 1e be
       0.8646868 0.0795289 -0.899922 -0.15434858
000310 7c 60 23 3f af 00 95 3e f1 2c ad bd 5c dd 29 3d
       0.638191 0.29102084 -0.084558375 0.04147087
000320 43 c7 7a 3e 04 a5 be 3c 89 f6 17 3f 93 58 fa 3e
       0.24490075 0.023272045 0.5936056 0.48895702
000330 bb e8 e3 3d a2 ae 33 bf dc 87 77 bf 7d 5e 3b be
       0.11128374 -0.70188344 -0.9669168 -0.18297763
000340 0a 8d 24 3f 66 e8 25 3f 7c e1 91 bf 73 10 d0 bd
       0.6427771 0.64807737 -1.1396937 -0.101593874
000350 a3 58 9a 3f 33 a4 3a be bf a3 6f 3d dc 6e 0d be
       1.20583 -0.182267 0.05850577 -0.13811821
000360 bb 03 d0 be b6 58 1e be 85 b0 65 be 22 20 08 3e
       -0.40627846 -0.15463528 -0.22430618 0.13293508
000370 f3 06 44 3f 33 df 2c bf ce fc 97 bc 2d a3 17 3e
       0.76573104 -0.67528075 -0.018553164 0.1480834
000380 e4 78 e7 be 98 d8 db bf 7e 58 b9 3e 9a 82 47 3f
       -0.4520942 -1.7175474 0.36200327 0.7793366
000390 65 20 f7 be e0 fc 49 3f 33 a8 21 bd 0f ba 8e 3f
       -0.48266903 0.7890148 -0.039467048 1.115053
0003a0 d5 23 92 3e 9d 48 1e 3e 65 a6 99 bf 7c 03 a2 be
       0.28542963 0.15457387 -1.2003905 -0.31643283
0003b0 68 9f 1e bf 67 c3 d5 bd eb c7 33 3f be ff 9a 3f
       -0.61961985 -0.10437661 0.70226926 1.2109296
0003c0 63 85 b2 3e ba 2b d7 3d 3e 46 46 bf 3a f3 50 bf
       0.3486739 0.10506387 -0.7745093 -0.81621134
0003d0 63 b2 ef 3c 08 59 01 3e 3c 74 a3 be 5b bd 29 bd
       0.029259866 0.12631619 -0.31924617 -0.04144035
0003e0 00 47 ef 3f fb bd a6 bf 29 01 61 3e 92 09 18 be
       1.8693542 -1.3026727 0.21973099 -0.14847401
0003f0 cc de 3f be b0 47 33 be 96 c8 6e be d5 a3 30 bc
       -0.18737334 -0.17507815 -0.23318705 -0.010781248

fc1.bias f4 [64]
000000 1f 85 82 3d 28 4f be bd a1 61 78 bf 3b 96 8e be
       0.06373047 -0.092924416 -0.9702397 -0.27848992
000010 fa 4b db bd fd ba d4 3e 9a 11 03 3d 22 13 81 bf
       -0.10707851 0.4154891 0.031999208 -1.0083964
000020 48 a7 99 bc de 31 2d 3f 44 bd a6 bd e7 e0 e6 3d
       -0.018756524 0.67654216 -0.08141568 0.112733655
000030 24 51 95 3f 37 e1 ba 3e b6 25 0a bb d4 4a 5f bf
       1.1665387 0.3649995 -0.0021079606 -0.87223554
000040 39 e3 0f 3f 0a cf 6b bf ce 04 0d 3d ef 0a 2c 3e
       0.5620609 -0.9211279 0.03442841 0.16801046
000050 33 48 28 bf 8a c2 ee 3d 8c 08 71 be 69 0e f5 be
       -0.6573517 0.11658199 -0.23538417 -0.47862557
000060 9f f4 e9 3d b0 74 ac bf 0b 73 df 3d 6e 23 63 be
       0.11423611 -1.347311 0.109106146 -0.22181484
000070 51 16 fa bd 7f 3c 25 3d 43 fa fc 3c ef d6 c2 bd
       -0.12211288 0.040340897 0.030881053 -0.095136516
000080 1f a1 3f 3f 9a 02 7b 3f c1 f8 89 be 72 42 c0 3f
       0.74855226 0.98050845 -0.26947597 1.5020278
000090 c8 4f 20 bf 49 4e 1a 3c 3e 63 b4 3e 8d 59 30 bf
       -0.62621737 0.009418079 0.35231966 -0.68886644
0000a0 d8 c1 3b 3d f1 31 c4 bd 06 ee 67 bf 71 fc 54 bd
       0.04583916 -0.09579838 -0.9059757 -0.05199856
0000b0 29 24 0e bf 64 11 cb 3d 87 55 25 bb fa bf 85 3f
       -0.55523926 0.099154264 -0.002522798 1.0449212
0000c0 f0 81 2e be 9b d2 8b 3e bd 1c 77 3d 70 45 f0 bd
       -0.17041755 0.27309117 0.06033014 -0.11731994
0000d0 38 38 73 bd d1 e4 3f 3e 44 46 60 be dc e7 3c 3d
       -0.059379786 0.1873963 -0.21901804 0.046119556
0000e0 5d f5 bc 3e e3 24 30 3f df fe 05 3f fa 35 28 be
       0.36905947 0.68806285 0.5234203 -0.1642684
0000f0 c7 c6 53 3f 3f d2 a2 3d 49 83 6c bd 83 a9 51 be
       0.82725185 0.079502575 -0.05774239 -0.2047482

fc2.weight f4 [64, 64]
000000 06 2c a4 bb 4a 9a fa bd 8e 1f f9 3d e3 46 27 3f
       -0.005010131 -0.122364596 0.12164222 0.6534254
000010 58 0a b4 3d 0f 4d d3 be 32 a8 ed 3d 0e ac 74 3d
       0.087910354 -0.4126973 0.11604346 0.059734397
000020 79 98 02 be ca 10 f2 bd 42 fa 65 bd b7 52 46 3e
       -0.12753476 -0.118196085 -0.056146868 0.1936749
000030 87 c7 31 be 26 a1 42 bf 9a a6 87 bd 0e ee d0 3d
       -0.1736127 -0.76027143 -0.066235736 0.10201655
000040 a6 7b 15 bf 23 db 18 be 2e fb ec bd ae fc f9 bd
       -0.583918 -0.14927344 -0.11571346 -0.12206398
000050 b7 95 37 3f 56 05 c9 3d 40 c2 52 3b f5 39 a1 bf
       0.7171282 0.09815471 0.003215924 -1.2595812
000060 ac aa c5 bd 87 a4 09 3f 74 6b 37 3d 6c 53 e4 3d
       -0.09651694 0.53766674 0.04478021 0.11148724
000070 ec 41 18 3d 20 31 c4 bd 64 63 e2 bd 85 85 cb 3e
       0.037172243 -0.09579682 -0.110541135 0.39750305
000080 3f c7 f2 3e 7b e4 ba be 1f 2c e4 bd 09 a5 cb 3e
       0.47417638 -0.36502442 -0.11141228 0.3977435
000090 81 66 2c be 9a fa ea bd 58 62 ce 3c 55 14 cf 3e
       -0.16835977 -0.1147358 0.025193378 0.404452
0000a0 34 50 6c 3e 68 b8 c8 3d 23 57 69 3f f0 b3 d9 bc
       0.2307747 0.09800798 0.91148585 -0.026575059
0000b0 8d a8 d1 bd 58 80 e6 bc 72 ae fa bd c5 28 3c bd
       -0.10237227 -0.028137371 -0.12240304 -0.04593732
0000c0 e8 85 21 bd 99 1c c1 be 71 c0 1d bd c0 b4 1f 3c
       -0.039434344 -0.3771713 -0.038513605 0.009747684
0000d0 7a ad 0d 3e c9 ee be bd ec 2d 0e bd 16 26 86 3d
       0.13835707 -0.093228884 -0.034711763 0.06550233
0000e0 42 9f 24 be 29 18 89 bd b4 dd d1 3e 70 c4 bf 3c
       -0.16076377 -0.06694061 0.4098946 0.023409098
0000f0 0c 6e f6 bd 3c e6 32 bf 64 f4 b3 3d 82 90 9c bd
       -0.120327085 -0.6988256 0.08786848 -0.0764475
000100 78 26 a3 3d b4 05 7f 3d 51 6b c2 bd fa 51 12 3e
       0.07966322 0.0622613 -0.09493125 0.14289084
000110 30 b7 23 3d 1c 00 7f 3e 48 41 32 bd 4b 23 ec bd
       0.039969623 0.24902385 -0.04351929 -0.11530169
000120 98 07 cf 3c 51 bd 0e bf 85 09 ea be 6f 1c 83 bd
       0.025272176 -0.55757624 -0.45710388 -0.06401908
000130 84 04 2d 3e c0 89 e8 bf 60 21 03 3c 80 cc 2d bf
       0.16896254 -1.8167038 0.008003563 -0.6789017
000140 06 90 84 bf 09 ce 26 bf 00 ae 90 b9 f0 6f d3 bc
       -1.0356452 -0.65158135 -0.0002759546 -0.025810212
000150 1d c0 a8 be 55 0a b0 bf 8e 12 f0 3d 89 c8 2b bf
       -0.3295907 -1.3753153 0.11722289 -0.6710287
000160 10 62 5d bd 6a 5c 60 3e 60 be 48 bd d0 9b c9 3d
       -0.054048598 0.21910253 -0.04900968 0.09844172
000170 9e 3e ad 3d 60 19 98 3b b0 9d 2c bc a8 5a 3e 3e
       0.08459209 0.004641697 -0.0105356425 0.1858927
000180 e0 de 25 be 42 1a 90 be f8 25 1b be d1 df 18 bf
       -0.16198301 -0.28145033 -0.15151203 -0.59716517
000190 8f ec 8e 3d a4 47 5b bd 78 ba 93 bd 62 a6 33 3d
       0.06978714 -0.05353512 -0.072133005 0.043859847
0001a0 0f 6c e7 bd 24 df 96 3d 21 77 d1 3e b1 c8 86 bf
       -0.112999074 0.073667794 0.409112 -1.0529996
0001b0 00 4b e8 be 28 ff c7 bd 00 99 4e bc 62 a9 7f 3e
       -0.4536972 -0.09765464 -0.01260972 0.24966958
0001c0 20 81 bd bd 86 f7 33 bf 76 0a ef 3d 28 01 15 3d
       -0.09253144 -0.70299566 0.11671917 0.036378056
0001d0 bd e1 55 bb 84 1b 57 be 00 d3 04 3c cc 34 9f bd
       -0.0032635771 -0.2100659 0.008106947 -0.07773742
0001e0 eb ce 9f 3e 6f b8 75 be 9c 23 1e bf e4 f8 d0 bd
       0.31212553 -0.23996137 -0.61773086 -0.10203722
0001f0 70 90 22 be 1a e3 4e be 2e 61 e3 bd ed 4b e4 3e
       -0.15875411 -0.2020382 -0.1110252 0.44589177
000200 b0 9e 81 bd 2d 43 77 3e 31 d4 9e be b8 42 24 bf
       -0.06329095 0.2414672 -0.31021264 -0.64164305
000210 fa b0 d8 bd 53 65 02 bd e0 d6 cc bc 37 53 05 3e
       -0.105806306 -0.03183491 -0.025004804 0.13020025
000220 85 4c ff bd 0e 2b 94 be f9 64 15 3f 31 25 19 3d
       -0.12465767 -0.28939098 0.583572 0.037388984
000230 86 3b d7 be 84 a4 92 bf 16 89 cc 3d 9c ae 73 3e
       -0.420376 -1.1456456 0.099870846 0.23797077
000240 a3 ee d5 be 39 0d 2f 3f 40 3b cf 3b b2 ef f4 3d
       -0.41783628 0.6837955 0.006324202 0.11959781
000250 c2 51 25 be 1f a9 b8 3e 00 e8 22 bd 95 e4 b6 be
       -0.1614447 0.3606653 -0.039772034 -0.3572127
000260 08 67 55 bd c4 2d c8 3d 40 fc fe bc 10 84 a6 3d
       -0.05210021 0.09774354 -0.031126142 0.08130658
000270 34 c7 c6 3d 5c a1 e6 3d cc 05 8e 3d 1b 05 bb ba
       0.09705964 0.112612456 0.069346994 -0.0014268489
000280 58 ab 55 be 4b 79 29 bd b6 7f 02 bf 9a 99 68 3f
       -0.20866144 -0.04137544 -0.5097612 0.9085938
000290 fa bd f8 be 34 44 fe bd 16 df 76 3e c3 7c aa 3e
       -0.4858244 -0.124153525 0.24108538 0.3329831
0002a0 f9 81 39 3f 1e c2 d4 3d de 44 51 3e db 57 d1 be
       0.7246395 0.103885874 0.20436427 -0.4088734
0002b0 6a 3a 1c 3e b5 81 a4 3d 64 98 70 bd e8 a4 43 be
       0.15256658 0.08032552 -0.05873908 -0.19105875
0002c0 94 de 31 3d b5 0f 39 bf 9e 63 df 3d d8 18 ec 3d
       0.043425158 -0.7228959 0.10907672 0.11528176
0002d0 b7 cb 2b 3e 4d 77 71 bf 94 15 5c 3d 50 87 e4 bc
       0.1677693 -0.94322664 0.053731516 -0.027896553
0002e0 d7 b8 0b bf dd e5 c3 bd 8c 64 85 3e f4 42 dc 3d
       -0.5457892 -0.09565327 0.26053274 0.10754958
0002f0 d1 06 71 3e 56 a3 83 be f6 f5 ac bd 64 9c 48 bf
       0.23537757 -0.25710553 -0.08445351 -0.78363633
000300 e0 c4 aa bc 82 ec 02 be ec 0f c7 bb d0 c8 b5 bc
       -0.02084583 -0.12785533 -0.006074896 -0.022190481
000310 dc 13 98 3d d4 e4 33 be d0 e1 4c 3c 3f 50 52 3d
       0.07425663 -0.1756776 0.01250501 0.05134606
000320 78 98 9d 3d 9d b3 09 3d c9 72 a0 bd ae 40 8a bd
       0.07695097 0.03361856 -0.078343935 -0.06750618
000330 56 a5 84 be bf ce 07 be 40 f3 1a 3c 99 d0 b5 bd
       -0.2590739 -0.13262461 0.009457409 -0.088776775
000340 95 77 65 bc a7 a9 9d bd b4 12 40 bd c0 fc 88 3b
       -0.014005561 -0.07698374 -0.046892837 0.004180521
000350 18 fc 05 be c8 40 64 3d 80 e7 82 3a da f8 ea bd
       -0.13084447 0.055725843 0.0009987205 -0.11473246
000360 f0 44 40 bd ca 51 bb 3c 00 0a d4 bd 16 6a 87 3d
       -0.046940744 0.022866149 -0.1035347 0.06612031
000370 ac 64 d6 bd c0 8f 19 3b 84 1a 31 bd 2d 54 b0 bb
       -0.104684204 0.002343163 -0.043238178 -0.0053811283
000380 21 42 86 bd 59 9f 16 3d a0 d2 09 be 17 5e e1 bd
       -0.06555582 0.03677306 -0.13459253 -0.11004274
000390 9c 01 dd bd a0 5b 35 bc 8c 9e 35 be 9a 41 03 be
       -0.107913226 -0.011069208 -0.17736262 -0.12817994
0003a0 7f 67 13 be 60 82 7b 3c 80 10 f9 bd 41 8b 95 bc
       -0.1439495 0.015350908 -0.1216135 -0.018254878
0003b0 6a 5e 36 be d0 c5 df bd a0 ab 33 3c ea 61 a1 3c
       -0.17809454 -0.109264016 0.010966212 0.01970001
0003c0 3e a0 88 bd 8f 72 cf bd 1a 25 d4 bd f0 6e 92 bc
       -0.06671189 -0.10129272 -0.10358639 -0.017875165
0003d0 13 de c8 bd bf 0d ad bc 30 3a 29 bd e0 13 d9 3b
       -0.09807982 -0.021124719 -0.041315258 0.0066246837
0003e0 77 9d e1 bd 70 c3 26 bd a5 e4 85 be a6 69 a6 bd
       -0.11016362 -0.040713727 -0.26151004 -0.081256196
0003f0 b1 9c 11 bd da 95 c4 3b 30 23 de 3c b8 a1 47 3d
       -0.035549823 0.005999309 0.027116388 0.04873821

fc2.bias f4 [64]
000000 54 0e 34 be a4 c4 ba bd 89 70 91 3f ee 07 02 be
       -0.17583591 -0.091195375 1.1362468 -0.12698337
000010 5f 34 76 bd 54 9e 3f 40 a5 07 3f c0 4c ce 1d 3e
       -0.06010854 2.9940386 -2.9848416 0.15410727
000020 ca fe b6 bf 9f 74 92 3f cc a9 f9 3d dd 44 d2 3f
       -1.4296505 1.144184 0.12190589 1.6427265
000030 8f 7c 0a c0 65 62 a6 bf 74 0e 11 be f8 99 1a 3f
       -2.1638525 -1.2998778 -0.1416567 0.6039119
000040 d6 6d 15 3f ef 3f b3 bd 63 0b 8f 3f c1 12 af be
       0.5837072 -0.08752429 1.117535 -0.34193996
000050 a0 b9 80 3e 6c 02 9f 3f 1f 34 f2 bf 3e 7b be 3e
       0.2514162 1.2422614 -1.8922156 0.372034
000060 f1 50 61 bd db e3 81 bf 32 98 1c c0 c2 b7 60 3f
       -0.055008832 -1.0147661 -2.4467893 0.8778039
000070 85 21 02 3b bb 37 05 3e 5b ea 95 3f 1f b5 0a c0
       0.0019856405 0.1300954 1.1712145 -2.1673048
000080 cb 60 55 3f 64 7c 3f 3e ca 50 03 be b0 fb f8 3e
       0.8335082 0.18699795 -0.12823787 0.48629522
000090 ac 57 8a bd 34 67 b6 bf 71 10 16 be c5 ab 97 be
       -0.06755003 -1.4250245 -0.1465471 -0.29623237
0000a0 07 df 92 bf 6c b6 5a 3f 2c 77 46 bf d1 9a e5 be
       -1.1474313 0.85434604 -0.7752559 -0.44844678
0000b0 98 04 c7 3d c9 6e 83 3f 35 2e c0 bc ab e7 1a c0
       0.09717673 1.0268184 -0.023459533 -2.42039
0000c0 58 6e 20 be 26 a4 b8 be cc 09 3a bf f7 5c 68 3e
       -0.15667093 -0.36062735 -0.726712 0.22691713
0000d0 71 77 f0 3e 28 e5 38 c0 73 df 21 bf 2d fd fd 3d
       0.46966127 -2.8889866 -0.6323158 0.12401805
0000e0 28 73 39 bd 57 5a eb be a6 bb 40 3d 31 d5 86 bf
       -0.045275837 -0.4596736 0.047053955 -1.0533811
0000f0 a1 d3 f7 be 28 95 94 3f 8c 9b 78 bf 29 59 c3 3b
       -0.48403648 1.1608019 -0.97112346 0.0059615565

fc3.weight f4 [2, 64]
000000 5b 7f 44 3c a2 1a 1e 3e 6e 3b 29 3e d2 64 f1 bd
       0.011993255 0.15439847 0.16526577 -0.11786808
000010 9c 42 7b bd 7f 8a 85 3d 30 1d 13 3e 25 88 e1 3c
       -0.06134282 0.06520557 0.14366603 0.02753074
000020 a2 8d 35 be b3 e4 84 bd c4 12 0e 3d 18 53 17 be
       -0.1772981 -0.064889334 0.034685865 -0.14777792
000030 d6 3f d6 3d b0 0b 4f 3e a1 36 1e bd 31 e1 1f 3d
       0.104613945 0.20219302 -0.038626317 0.03903312
000040 16 5e 09 3c 79 e9 8f bd 1b 58 2f be 7d 8b fe 3d
       0.008384248 -0.07026953 -0.17123453 0.12428949
000050 b0 ee bb bd b3 1b f7 bd 7b 63 5b be 14 d8 3a 3e
       -0.091763854 -0.1206583 -0.21424668 0.1824649
000060 77 df 1a bc d4 32 4b bd 84 ae e8 3d 70 68 42 bd
       -0.009452692 -0.04960902 0.11361411 -0.04746288
000070 43 6f 9e 3c 78 aa b3 bd 50 61 d0 bd 73 df db 3d
       0.019340163 -0.08772749 -0.10174811 0.10735979
000080 31 eb 2a be 8f 88 3c 3d f2 99 a6 bd fb 42 9c 3d
       -0.16691281 0.04602867 -0.081348315 0.07629963
000090 23 c0 d7 3d a2 d7 9a bd 60 b0 84 3c af 71 e8 3d
       0.10534694 -0.0756066 0.016197383 0.113498084
0000a0 9e 41 f3 3d f6 fd 99 bd 29 32 b8 3d 38 7d 46 bd
       0.1187775 -0.07519142 0.08993942 -0.04845926
0000b0 b5 03 19 be a3 98 8d bd 4e 9a 9d bb ba e2 45 3c
       -0.1494282 -0.06913879 -0.0048096543 0.012077982
0000c0 bd 38 48 3d 7b 53 2b 3e 91 2d d7 bd 62 9d e9 bd
       0.048882235 0.16731064 -0.10506738 -0.114069715
0000d0 f0 40 a8 bd bf 5f 20 3d 0c 3e da bd 30 9c 11 be
       -0.08215511 0.03915381 -0.10656366 -0.14219737
0000e0 3d 9f 0e 3d 9a d3 f7 39 9b 70 b8 3b db 33 be 3b
       0.03481983 0.00047269167 0.005628658 0.0058045215
0000f0 ed 5e a0 3d 85 e1 fa bd e4 e5 83 3d 69 fb f7 bd
       0.07830606 -0.12250046 0.064403325 -0.121084996
000100 a4 44 87 bd 63 2a 52 be c1 e1 9f b9 ce 17 76 bd
       -0.06604889 -0.20523982 -0.00030495043 -0.060081296
000110 90 78 e1 bd 62 d0 07 be b0 b9 26 bd 01 f9 ff bd
       -0.110093236 -0.13263085 -0.04070443 -0.124986656
000120 7a bd d2 3d 6d ce 0c 3e 7a c5 a7 bd c3 a6 5d 3c
       0.10290046 0.1375062 -0.081919625 0.013528529
000130 1b 23 9c bd 32 3f a9 3c 80 37 8c bd 79 82 b2 bd
       -0.07623883 0.020660017 -0.06846523 -0.08716292
000140 43 07 ff 3d ba 0d b3 3d 60 c8 9b 3d 13 81 0e bd
       0.12452557 0.087428525 0.07606578 -0.034791064
000150 01 ad 3d 3e 07 52 10 3d 0a e5 65 3e 98 92 93 bc
       0.18523027 0.035234477 0.22450653 -0.018014237
000160 81 67 49 3d 29 a2 ab 3d 9c fe 60 bd c6 f7 27 be
       0.049170975 0.08380539 -0.054930314 -0.16403112
000170 98 ba 75 3d 83 fe 47 3d 56 56 77 3d c4 31 f0 bb
       0.059992403 0.048826706 0.06038507 -0.0073301513
000180 34 63 3e 3c c5 30 d2 bd 73 33 05 3e 9b 47 1e be
       0.011620332 -0.10263208 0.13007908 -0.15457003
000190 a4 d4 6c 3d 34 4f 44 3d f3 5f 33 3d 78 47 8f bc
       0.057819977 0.047927096 0.043792676 -0.017490134
0001a0 50 87 14 be 83 2a 4e 3d 48 b4 73 bc 13 95 11 be
       -0.14504743 0.05033351 -0.014874525 -0.14217024
0001b0 4b 30 f3 bc a8 78 c7 3d d0 ae 2c 3d e9 f5 39 be
       -0.029686114 0.0973981 0.0421589 -0.18160214
0001c0 b6 bd ba 3c 35 f5 ef bc c1 9f c8 3c 70 a3 19 3c
       0.02279554 -0.029291729 0.02449024 0.009377345
0001d0 39 ea 96 3d 3a 25 e9 bd ed fd 1a 3e 02 e7 29 bd
       0.07368893 -0.113840535 0.15135927 -0.04148007
0001e0 1f d5 64 3d 91 b9 1c be 5a e1 58 3d a6 0f 40 be
       0.05586731 -0.15305163 0.052949287 -0.1875597
0001f0 16 6e c9 bc 4b 91 a1 3c 3a 32 53 bd 4a 14 50 3b
       -0.024588626 0.019722601 -0.05156157 0.0031750374

fc3.bias f4 [2]
000000 47 60 8d 3e bb b3 37 be
       0.27612516 -0.17939655
