model.pth (torch, 15924 bytes, 6 tensors)

fc1.weight f4 [50, 13]
-0.0069004274 -0.008360369 0.005961709 -0.17687719 0.025380187 -0.049563576 0.059591293 0.1256684
-0.39236414 -0.14827597 -0.20685609 0.5445784 -2.5857866 0.08149337 0.087701544 -0.24421377
-0.09160489 -0.22190095 0.08638682 0.032281715 0.020185012 0.1874244 0.20699675 0.3741548
0.19419257 -1.3034033 -0.009879131 0.01917684 0.03313417 0.0053147264 0.036811892 0.19069692
-0.033738095 0.16520467 0.09259997 0.369081 0.41028872 -0.064641155 2.4904368 -0.24401557
-0.1929201 0.05812092 0.18656188 0.15376876 -0.0059933183 0.22366096 0.24042708 -0.17884074
0.11341248 -0.31352904 -0.45927233 -1.8794363 0.034334272 -0.11596461 -0.083362296 -0.17350918
-0.078745544 0.25794658 0.21499807 -0.13005963 0.23414686 -0.10667819 -0.27023157 -0.04948701
-0.23683202 0.010213388 0.013693478 0.021903003 0.015297678 -0.06171973 -0.011898474 0.014086712
-0.044862133 0.12960452 0.23682533 0.33240685 0.07387213 2.945988 -0.040910035 -0.17061087
-0.05991362 -0.21791449 -0.08487958 -0.112732664 0.11832854 -0.08178137 0.1698691 0.18628499
0.0072616935 0.11810452 -0.19025075 0.0040337876 0.038242515 0.017227763 -0.007340521 -0.162472
0.066683166 0.08332909 -0.1783988 0.18001789 0.43672928 0.2791293 0.06993931 2.696422
0.31501427 -0.19298425 -0.24203566 -0.08008812 -0.061188083 0.06829517 -0.049534015 0.10023601
-0.43862993 0.10086882 0.12800032 -0.28152424 -1.8008708 -0.07378314 -0.19080664 0.21943069
-0.12345547 -0.100842305 0.12088672 0.07648153 0.0037375973 -0.41409338 0.16875052 -0.4335949
0.051479436 -2.2451496 -0.335815 0.19172823 0.035041325 -0.31269348 0.05073856 0.06842665
0.07742577 -0.13974178 0.3020453 -0.637648 -0.3848037 -0.04451903 -1.3763179 0.04421156
0.027170645 0.043420363 0.013443111 -0.106323786 -0.049447507 0.034553654 0.1393986 0.028538221
0.12928994 0.49376303 0.13692641 2.4865324 0.028914498 0.010802721 -0.00012490319 -0.0039086738
-0.16969512 -0.04952799 -0.12821582 -0.13551784 0.3300507 0.2933194 0.018641565 0.23008282
2.5388534 0.22079334 -0.000953897 -0.1414783 -0.06479572 -0.12921733 -0.05912834 0.11026707
0.08452032 -0.58201593 -0.5796328 0.1717136 -0.15547831 -2.5175672 -0.037242398 -0.20551899
0.020749435 -0.020533187 0.03508743 0.07054872 -0.08148594 -0.12392782 -0.24810782 0.42153007
-0.5135061 -0.33649406 -2.2040048 0.07016146 0.009837063 0.024128199 0.0031867537 -0.19305204
-0.16501966 0.0150139425 0.08667112 0.58302116 0.1805553 0.25586933 0.063856535 2.6143296
-0.10912928 -0.14267696 -0.22411178 0.3175225 -0.062587 0.13511029 -0.16520956 0.13766061
-0.13408005 -0.047958955 -0.10587218 -0.47830015 -1.7388403 0.085443735 -0.16200815 0.1581087
-0.02054632 -0.25748152 -0.029497886 -0.05548459 -0.0059715128 -0.14776032 0.39977485 -0.33965296
-0.13107117 -0.78211784 0.22139694 -0.16974212 0.06576811 -0.018544268 -0.22604889 0.26474372
0.09345578 0.10577645 -0.18997705 0.0704806 0.14007129 0.009886713 -0.7468066 0.09804434
-0.16165109 -0.21365508 -0.19851062 0.2198288 0.026485868 0.04678881 -0.13665693 -0.6469701
00000000: fb1c e2bb eef9 08bc 715a c33b 4b1f 35be
00000010: 1cea cf3c 2d03 4bbd 0016 743d 38af 003e
00000020: f4e3 c8be a8d5 17be 15d2 53be 7d69 0b3f
00000030: 877d 25c0 ffe5 a63d de9c b33d 2d13 7abe
00000040: 589b bbbd 013a 63be 93eb b03d d539 043d
00000050: 0a5b a53c 2fec 3f3e f5f6 533e 3891 bf3e
00000060: 6bda 463e ebd5 a6bf 14dc 21bc c018 9d3c
00000070: b2b7 073d 2827 ae3b 11c8 163d 0e46 433e
00000080: f530 0abd 6a2b 293e 0ea5 bd3d 2ff8 bc3e
00000090: 5d11 d23e 9562 84bd 5163 1f40 38df 79be
000000a0: d98c 45be 3410 6e3d 140a 3f3e 8f75 1d3e
000000b0: 9963 c4bb 6107 653e 8432 763e 0722 37be
000000c0: cd44 e83d e186 a0be be25 ebbe 5e91 f0bf
000000d0: 18a2 0c3d da7e edbd dab9 aabd 64ac 31be
000000e0: 5845 a1bd 9311 843e 7428 5c3e 5a2e 05be
000000f0: 32c4 6f3e 187a dabd cb5b 8abe e4b2 4abd
00000100: 1884 72be 0e56 273c 9c5a 603c ed6d b33c
00000110: 1da3 7a3c d4cd 7cbd d1f1 42bc f4cb 663c
00000120: 5bc1 37bd 0cb7 043e 5782 723e 3b31 aa3e
00000130: 454a 973d 118b 3c40 4891 27bd 9eb4 2ebe
00000140: fc67 75bd fa24 5fbe 58d5 adbd 62e0 e6bd
00000150: 3c56 f23d fe7c a7bd 2af2 2d3e 7ec1 3e3e
00000160: 80f3 ed3b c8e0 f13d 18d1 42be dd2d 843b
00000170: 2fa4 1c3d 3d21 8d3c c188 f0bb 0f5f 26be
00000180: 2f91 883d 71a8 aa3d 2dae 36be 9c56 383e
00000190: fb9a df3e 09ea 8e3e 573c 8f3d 2e92 2c40
000001a0: 8d49 a13e aa9d 45be 32d8 77be 3e05 a4bd
000001b0: 5ba0 7abd 57de 8b3d 2ee4 4abd 8a48 cd3d
000001c0: 1a94 e0be 5094 ce3d 8412 033e f223 90be
000001d0: ef82 e6bf 9d1b 97bd d162 43be 70b2 603e
000001e0: 39d6 fcbd 6986 cebd 7593 f73d 59a2 9c3d
000001f0: 7af2 743b 0c04 d4be f0cc 2c3e 2700 debe
00000200: 1adc 523d 88b0 0fc0 f2ef abbe 6854 443e
00000210: 7e87 0f3d 5c19 a0be 3cd3 4f3d 4523 8c3d
00000220: 6791 9e3d 7818 0fbe aea5 9a3e e63c 23bf
00000230: fe04 c5be 9659 36bd 2f2b b0bf 2e17 353d
00000240: f994 de3c 8dd9 313d 7f40 5c3c 49c0 d9bd
00000250: 7889 4abd 2288 0d3d 82be 0e3e fdc8 e93c
00000260: 9564 043e 82ce fc3e 7036 0c3e 5923 1f40
00000270: 19de ec3c e5fd 303c 72f8 02b9 5514 80bb
00000280: 8fc4 2dbe dddd 4abd 024b 03be 30c5 0abe
00000290: 68fc a83e f62d 963e 32b6 983c d59a 6b3e
000002a0: 937c 2240 a617 623e f20e 7aba b0df 10be
000002b0: 9eb3 84bd 8c51 04be 8f30 72bd b4d3 e13d
000002c0: fd18 ad3d fffe 14bf d162 14bf b1d5 2f3e
000002d0: b535 1fbe d21f 21c0 7c8b 18bd 9273 52be
000002e0: b8fa a93c 3735 a8bc d6b7 0f3d d97b 903d
000002f0: 1ae2 a6bd decd fdbd fa0f 7ebe cad2 d73e
00000300: 2375 03bf f348 acbe 6a0e 0dc0 d0b0 8f3d
00000310: a22b 213c 80a8 c53c dbd8 503b 6faf 45be
00000320: eafa 28be 0afd 753c a180 b13d e040 153f
00000330: 7de3 383e 4e01 833e 37c7 823d 2d51 2740
00000340: 2c7f dfbd e919 12be 8f7d 65be 4f92 a23e
00000350: 9d2d 80bd 5a5a 0a3e b22c 29be e7f6 0c3e
00000360: 484c 09be 9c70 44bd 83d3 d8bd c2e3 f4be
00000370: 5292 debf 20fd ae3d 77e5 25be 3fe7 213e
00000380: c250 a8bc 9ed4 83be 8da5 f1bc cf43 63bd
00000390: aeac c3bb 7b4e 17be 4aaf cc3e fee6 adbe
000003a0: 8537 06be e038 48bf e1b5 623e e1d0 2dbe
000003b0: 6eb1 863d 26ea 97bc 5c79 67be 7d8c 873e
000003c0: be65 bf3d 53a1 d83d 5889 42be 2258 903d
000003d0: d96e 0f3e e1fb 213c b82e 3fbf 79cb c83d
000003e0: dd87 25be 66c8 5abe 5e46 4bbe cd1a 613e
000003f0: e4f8 d83c a0a5 3f3d cbef 0bbe d59f 25bf

fc1.bias f4 [50]
0.52195656 0.3436023 -0.18943718 -0.08953037 0.24554446 -0.361612 0.14349282 -0.21342413
-0.16424446 0.42237183 -0.114468694 -0.3443772 -0.23786922 0.020494502 0.51375914 -0.34319368
-0.092172675 0.15567523 -0.14444923 0.28513348 -0.33133626 0.100109816 -0.6583393 0.20954993
0.09922108 -0.42642185 0.3864369 0.31148335 -0.17587732 0.5918877 0.14216426 -0.117853865
-0.21498969 -0.09482163 -0.75658894 -0.13571517 -0.32562244 0.06037929 -0.20550057 0.23785754
0.07335249 -0.04324261 0.38862842 0.03607414 -0.5209239 -0.64370227 0.24663112 0.45626932
0.36816782 -0.19769113
00000000: f29e 053f a4ec af3e d2fb 41be b35b b7bd
00000010: 0270 7b3e 3525 b9be c8ef 123e db8b 5abe
00000020: b32f 28be 1f41 d83e 906e eabd 3552 b0be
00000030: fd93 73be 16e4 a73c b885 033f 15b7 afbe
00000040: 07c5 bcbd 5469 1f3e 80ea 13be 04fd 913e
00000050: e8a4 a9be 6006 cd3d ed88 28bf 4294 563e
00000060: 6c34 cb3d f753 dabe 0fdb c53e bf7a 9f3e
00000070: 2f19 34be f485 173f 8293 113e 5e5d f1bd
00000080: 4226 5cbe d831 c2bd d0af 41bf ebf8 0abe
00000090: fcb7 a6be 4650 773d be6e 52be ed90 733e
000000a0: d539 963d 2a1f 31bd 4efa c63e 7ac2 133d
000000b0: 455b 05bf acc9 24bf de8c 7c3e 229c e93e
000000c0: 7e80 bc3e 8b6f 4abe

fc2.weight f4 [50, 50]
0.3398689 0.04813916 -0.019550608 0.092888586 0.08771145 -0.13081269 -0.04318665 -0.13347305
0.09207838 0.09972109 -0.023082715 0.009205833 -0.0411326 -0.009824071 0.22080997 -0.04868574
0.13626222 -0.10314851 -0.12203539 0.22149034 -0.04202292 0.15304762 -0.12605211 -0.13728204
0.14656505 -0.17005792 0.18538027 0.34302425 -0.058173608 0.36853346 0.1372733 0.056304827
-0.06714074 0.06294775 -0.07787401 0.04344517 -0.09909784 -0.03682133 -0.1651758 0.27071664
0.05120987 -0.09304516 0.2648088 -0.04590398 -0.15025686 -0.14022948 0.033438247 0.07786138
0.11859987 -0.06283183 -0.22214879 -0.19198433 0.13202284 -0.025672823 0.12587447 0.19293013
-0.049249098 0.04625032 -0.1963536 -0.20973511 -0.22406855 0.19719094 0.026438067 -0.27915794
-0.17752944 -0.073449984 -0.16103546 0.004950394 -0.0898422 -0.1633169 0.13770787 -0.16269466
-0.06765807 -0.02265437 -0.054251757 0.03511329 -0.21662979 -0.12892462 0.15909666 -0.3347369
-0.011731893 0.097969964 0.059091967 -0.09404768 0.24772596 0.0705661 0.064815216 -0.12890303
0.04981309 -0.13733798 0.10422616 -0.1370913 -0.17890246 -0.10677115 0.07172655 0.14851288
-0.17606544 -0.26391542 -0.14788033 -0.034971807 0.1006347 0.031519894 0.014844697 0.14413194
0.12046449 -0.21069191 0.10693991 -0.046249785 -0.035478473 0.3189698 0.08733243 -0.033889174
-0.103157654 0.19302033 0.21833812 -0.09447767 -0.0086272955 0.028072536 0.06338381 0.20427038
-0.1035983 0.19890532 -0.16790731 0.021624148 0.14652102 -0.17002523 0.038659777 0.32743824
-0.055619504 0.30334443 -0.07768861 0.13862708 0.008364739 0.2834983 -0.14566915 0.02111891
-0.15870427 0.1305638 0.013018013 0.14503007 0.07914458 0.090481535 -0.04627743 0.06545119
-0.11891595 -0.041035578 0.14544933 0.17767163 -0.020431984 0.011424346 -0.18862583 -0.15910383
0.030505769 -0.19113286 -0.0596534 0.059766423 0.0144637525 0.016471999 -0.13233937 -0.25253108
-0.1727318 0.08190302 -0.01786381 -0.19232878 -0.20573428 0.10885633 -0.1830696 -0.10687948
-0.12642343 -0.21345408 0.21238492 -0.3193986 0.13554625 0.10156073 -0.13147414 0.14077313
-0.19305038 -0.20685932 -0.021529187 -0.26797345 -0.09678028 -0.05210387 0.109861776 -0.24147817
0.25233915 0.12275173 0.02773857 -0.28129086 0.13325953 -0.15040687 0.023355413 -0.07579498
-0.12509897 -0.056978226 0.24326959 0.12622158 -0.2866504 -0.15130068 -0.21637161 0.0779186
-0.20528103 -0.064994805 0.07842386 -0.09127798 0.1335968 0.1634299 -0.09857005 -0.049482115
-0.112931356 -0.29895008 -0.14381133 -0.005877198 0.13912857 -0.21811269 -0.12951037 -0.028100036
-0.18899639 -0.11892022 -0.19504695 -0.14578986 0.26655543 -0.28049958 0.21927616 0.10496195
-0.11701705 0.07773604 -0.20953768 -0.21073274 0.05780506 -0.3182111 -0.12692524 -0.12127413
-0.042734962 -0.21336342 0.29233867 -0.01422748 0.041955315 -0.1353624 0.26348302 -0.17532267
0.0015601991 -0.05673931 -0.26041532 -0.04345083 0.18674038 0.106890365 -0.30215582 -0.18281326
-0.07860152 0.015620936 -0.35024002 -0.19858785 0.13103206 -0.033512216 -0.116048165 0.1253079
00000000: 4c03 ae3e 912d 453d 9928 a0bc 5f3c be3d
00000010: 10a2 b33d c3f3 05be 7ce4 30bd 29ad 08be
00000020: 9793 bc3d 923a cc3d f617 bdbc 10d4 163c
00000030: a87a 28bd 24f5 20bc 021c 623e b36a 47bd
00000040: 5388 0b3e 873f d3bd b1ed f9bd 5dce 623e
00000050: 3a20 2cbd 84b8 1c3e ce13 01be aa93 0cbe
00000060: 2615 163e aa23 2ebe 53d4 3d3e e0a0 af3e
00000070: 7347 6ebd 6bb0 bc3e 5f91 0c3e e49f 663d
00000080: 1681 89bd c0ea 803d 697c 9fbd 90f3 313d
00000090: cff3 cabd f7d1 16bd d823 29be 5f9b 8a3e
000000a0: 71c1 513d 768e bebd 0595 873e d005 3cbd
000000b0: efdc 19be 5198 0fbe 8bf6 083d ca75 9f3d
000000c0: 7de4 f23d f9ad 80bd f97a 63be 8a97 44be
000000d0: ff30 073e d04f d2bc 3de5 003e 7a8f 453e
000000e0: 6cb9 49bd fa70 3d3d eb10 49be cdc4 56be
000000f0: 3a72 65be 6cec 493e a594 d83c caed 8ebe
00000100: 47ca 35be f26c 96bd 7be6 24be ea36 a23b
00000110: 30ff b7bd 8c3c 27be 4b03 0d3e 6e99 26be
00000120: 5090 8abd a895 b9bc 1737 5ebd f4d2 0f3d
00000130: 33d4 5dbe d104 04be 3cea 223e a362 abbe
00000140: 2037 40bc 7aa4 c83d 6b0a 723d 129c c0bd
00000150: e0ab 7d3e f684 903d d7bd 843d 28ff 03be
00000160: d008 4c3d 54a2 0cbe 8674 d53d a961 0cbe
00000170: 3532 37be d5aa dabd 5fe5 923d c313 183e
00000180: 804a 34be ec1f 87be f16d 17be 993e 0fbd
00000190: 9119 ce3d 011b 013d 2c37 733c 5397 133e
000001a0: 16b6 f63d 9fbf 57be 5003 db3d 6a70 3dbd
000001b0: e051 11bd 0250 a33e 58db b23d 60cf 0abd
000001c0: 5244 d3bd 1fa7 453e 0794 5f3e 827d c1bd
000001d0: 8059 0dbc 60f8 e53c 5fcf 813d 412c 513e
000001e0: 582b d4bd d6ad 4b3e e5ef 2bbe 2025 b13c
000001f0: 9b09 163e 181b 2ebe b759 1e3d fca5 a73e
00000200: 47d1 63bd f64f 9b3e 351b 9fbd 42f4 0d3e
00000210: 420c 093c b026 913e 4b2a 15be 9001 ad3c
00000220: 5f83 22be 84b2 053e 8149 553c c382 143e
00000230: 8e16 a23d 624e b93d 678d 3dbd 460b 863d
00000240: 358a f3bd ec14 28bd abf0 143e 8def 353e
00000250: fa60 a7bc 2e2d 3b3c 2127 41be 1dec 22be
00000260: 3ce7 f93c 55b8 43be 2057 74bd a3cd 743d
00000270: 60f9 6c3c 49f0 863c f983 07be c14b 81be
00000280: 9be0 30be c5bc a73d 2057 92bc d6f1 44be
00000290: 02ac 52be 11f0 de3d 9976 3bbe a1e3 dabd
000002a0: 2575 01be b593 5abe 6f7b 593e 3788 a3be
000002b0: a3cc 0a3e 12ff cf3d 28a1 06be d526 103e
000002c0: 00af 45be eed2 53be fa5d b0bc d133 89be
000002d0: bd34 c6bd de6a 55bd 36ff e03d 0e46 77be
000002e0: 9932 813e 4265 fb3d ff3b e33c 5b05 90be
000002f0: 3075 083e 4204 1abe da53 bf3c 663a 9bbd
00000300: f219 00be 0062 69bd aa1b 793e 3b40 013e
00000310: d7c3 92be 91ee 1abe 8590 5dbe c993 9f3d
00000320: 3135 52be ff1b 85bd b09c a03d f3ef babd
00000330: 99cd 083e 2b5a 273e 18df c9bd c2ad 4abd
00000340: 8e48 e7bd fc0f 99be 4743 13be 8395 c0bb
00000350: b877 0e3e ef58 5fbe 5e9e 04be 0c32 e6bc
00000360: 4588 41be 728c f3bd 63ba 47be f049 15be
00000370: f479 883e a49d 8fbe ee89 603e 4af6 d63d
00000380: a3a6 efbd 1334 9f3d 0c91 56be 53ca 57be
00000390: 00c5 6c3d 91ec a2be b1f8 01be 925e f8bd
000003a0: db0a 2fbd f17b 5abe 6aad 953e 601a 69bc
000003b0: 56d9 2b3d 719c 0abe 3fe7 863e c987 33be
000003c0: 987f cc3a 7b67 68bd 2855 85be 7ff9 31bd
000003d0: df38 3f3e 56e9 da3d 2bb4 9abe 6633 3bbe
000003e0: d5f9 a0bd f4ee 7f3c a952 b3be 9d5a 4bbe
000003f0: 452d 063e 1b44 09bd a9aa edbd b750 003e

fc2.bias f4 [50]
0.17914145 0.047259208 0.14299724 0.059017047 -0.0025663597 0.060265105 0.035132058 0.2055133
0.048004996 0.2561166 -0.067907825 0.1419605 0.08285417 0.0069427593 0.06941553 0.20026842
0.085044496 0.20385084 0.030909363 0.084585875 0.04379419 0.22550812 0.16236092 0.07306848
0.15759043 0.16253412 0.052521635 0.039501924 0.104321234 0.016018227 0.19342113 0.13473742
0.05244135 0.013509842 0.053335283 0.027574126 0.04559913 -0.10320173 0.15251362 0.20822541
0.013977166 0.05639799 0.19977771 0.2001523 0.031616077 0.05184752 0.20368001 0.01091917
0.29860255 0.14328073
00000000: db70 373e df92 413d de6d 123e dcbb 713d
00000010: 5f30 28bb 8bd8 763d a2e6 0f3d 1472 523e
00000020: e3a0 443d b721 833e 4213 8bbd 185e 113e
00000030: 72af a93d 1680 e33b bb29 8e3d 2a13 4d3e
00000040: cf2b ae3d 46be 503e a235 fd3c 5c3b ad3d
00000050: 8961 333d 9aeb 663e f141 263e eda4 953d
00000060: 635f 213e 586f 263e ed20 573d c5cc 213d
00000070: 5fa6 d53d a838 833c 3010 463e 9bf8 093e
00000080: becc 563d 6258 5d3c 1976 5a3d 22e3 e13c
00000090: 27c6 3a3d 6e5b d3bd 882c 1c3e 0b39 553e
000000a0: 7c00 653c 9401 673d 8792 4c3e b9f4 4c3e
000000b0: dc7f 013d 115e 543d 7e91 503e 52e6 323c
000000c0: 6fe2 983e 2fb8 123e

fc3.weight f4 [2, 50]
-0.21121489 0.06306836 -0.1689411 0.3126863 0.24234019 0.2049653 0.2334323 -0.2844901
0.085041255 -0.23095533 -0.11380274 -0.24978009 0.23316039 0.113138616 0.15808992 -0.13962951
0.26216924 -0.22495073 0.3081765 0.05091994 0.1811047 -0.2634134 -0.25950253 0.24688455
-0.1528675 -0.19523837 0.12480954 0.2789422 -0.16724697 0.15567926 -0.2977007 -0.08292901
0.13398737 0.31775075 0.2579829 0.24499243 0.08056049 -0.06762104 -0.29975381 -0.24747247
0.10634088 0.1926962 -0.29175574 -0.27375326 0.1631755 0.16753578 -0.16571233 0.14652094
-0.3820022 -0.29512593 0.12509903 -0.3054877 0.17925318 -0.06636155 -0.26298827 -0.20154765
-0.22955231 0.1510035 -0.26678938 0.35385802 0.121383384 0.25992742 -0.17420521 -0.22099914
-0.123704284 0.27990398 -0.06817141 0.2582466 -0.16236712 -0.20712508 -0.20222911 0.25642937
0.21210282 -0.1820881 0.163218 0.33655524 -0.26323476 -0.1255096 0.21797058 -0.12772304
0.0591472 0.24819782 -0.24960904 -0.12254718 -0.2176734 -0.113910876 -0.25020576 0.06703955
0.21104524 0.18962064 -0.23116466 -0.1116003 0.11184366 0.28747502 -0.3065935 -0.3114862
0.25297272 -0.27499807 0.19908868 0.20171642
00000000: b748 58be fc29 813d e5fe 2cbe 6b18 a03e
00000010: 0728 783e 6ce2 513e e008 6f3e b0a8 91be
00000020: 1c2a ae3d 8e7f 6cbe 6911 e9bd 5ac6 7fbe
00000030: 99c1 6e3e 38b5 e73d 53e2 213e 0afb 0ebe
00000040: 0c3b 863e 7c59 66be 4fc9 9d3e 6d91 503d
00000050: 8373 393e 1fde 86be 84dd 84be 4ecf 7c3e
00000060: 4c89 1cbe 91ec 47be 259c ff3d 83d1 8e3e
00000070: ca42 2bbe 626a 1f3e 3a6c 98be afd6 a9bd
00000080: fc33 093e 3ab0 a23e 5616 843e 4cdf 7a3e
00000090: e6fc a43d e67c 8abd 5579 99be 6c69 7dbe
000000a0: 3fc9 d93d 2752 453e 0261 95be 6329 8cbe
000000b0: 7a17 273e 808e 2b3e 7eb0 29be 9609 163e
000000c0: cb95 c3be bf1a 97be f619 003e e268 9cbe
000000d0: 258e 373e 90e8 87bd 66a6 86be 8262 4ebe
000000e0: c30f 6bbe a9a0 1a3e 9e98 88be e12c b53e
000000f0: da97 f83d 3515 853e da62 32be 994d 62be
00000100: ac58 fdbd 934f 8f3e 749d 8bbd e638 843e
00000110: 9143 26be 9918 54be 2615 4fbe b64a 833e
00000120: 7b31 593e 4e75 3abe 9f22 273e f850 ac3e
00000130: b5c6 86be 9785 00be ae33 5f3e d4c9 02be
00000140: 5644 723d 9227 7e3e 8399 7fbe 04fa fabd
00000150: c7e5 5ebe 1b4a e9bd f81a 80be 084c 893d
00000160: 3e1c 583e ea2b 423e 6eb6 6cbe b38e e4bd
00000170: 4a0e e53d ed2f 933e d3f9 9cbe 1f7b 9fbe
00000180: a485 813e 8ccc 8cbe e7dd 4b3e c08e 4e3e

fc3.bias f4 [2]
-0.054882824 0.022236243
00000000: d0cc 60bd c828 b63c
