model.pth (torch, 15860 bytes, 6 tensors)

fc1.weight f4 [50, 13]
0	0x3d8b101e	0.067901835
1	0xbe7ed315	-0.24885209
2	0x3e79897b	0.24368851
3	0xbe5653d1	-0.20930411
4	0x3e16c99e	0.14725348
5	0xbe6d0e95	-0.23150094
6	0xbdff8740	-0.12476969
7	0xbd8157ff	-0.06315612
8	0xbe9f2376	-0.31081742
9	0x3e4d6a73	0.20060138
10	0xbf1246b6	-0.57139146
11	0xbd9f74b6	-0.07785933
12	0xbf9341a3	-1.1504406
13	0xbdff33f9	-0.12461085
14	0x3e7899bc	0.24277395
15	0xbe272c72	-0.16325548
16	0xbe051d02	-0.12999347
17	0x3d07ab92	0.033122607
18	0x3dbe4ff5	0.09292594
19	0xbe5e4e22	-0.21709493
20	0x3ce62238	0.028092489
21	0xbb25809d	-0.0025253661
22	0xbef9fab8	-0.48824096
23	0xbe23880d	-0.15969868
24	0x3e6dbed1	0.23217322
25	0xbf54ae37	-0.8307833
26	0xbe1db9a8	-0.15402853
27	0x3e0170ef	0.12640737
28	0xbe305ee6	-0.17223701
29	0x3e2de0c4	0.16980273
30	0xbd05e2dc	-0.032687053
31	0x3e008b3a	0.1255311
32	0x3d708bfb	0.058727246
33	0x3d7852b2	0.06062574
34	0x3ea9217e	0.33033365
35	0xbeb37bde	-0.3505544
36	0x3f060980	0.52358246
37	0xbec16dea	-0.3777917
38	0xbfa8e646	-1.3195274
39	0x3ba938c0	0.005164236
40	0xbe810387	-0.25198004
41	0xbe458c44	-0.19291788
42	0xbdf9ac64	-0.12191084
43	0x3ba6d980	0.005091846
44	0xbd1246bc	-0.03571199
45	0xbdd3d800	-0.10343933
46	0xbdb2752e	-0.087137565
47	0x3c8e92e0	0.01740402
48	0x3de990a8	0.11404544
49	0xbe510bc4	-0.20414644
50	0x3d3f7da8	0.046750695
51	0x3debb038	0.115082204
52	0x3e61a282	0.22034648
53	0xbe911fb8	-0.28344512
54	0x3e1086cb	0.1411392
55	0x3e5ebf3c	0.21752638
56	0x3e4bf3ea	0.19917265
57	0x3e139cdb	0.14415304
58	0x3e527e01	0.20555879
59	0xbc5b1762	-0.013372274
60	0xbe4545cd	-0.19264908
61	0xbe93c8f0	-0.2886424
62	0x3d668093	0.05627496
63	0xbebdb7dd	-0.3705434
64	0xbf0f1004	-0.5588381
65	0xbe3c03d5	-0.18360837
66	0xba2032a6	-0.0006111063
67	0x3e1a48d8	0.1506685
68	0xbdfbe69d	-0.12299845
69	0x3df9a271	0.12189186
70	0x3e0f6c5c	0.1400618
71	0x3e3297b6	0.17440686
72	0xbe8b08e8	-0.27155232
73	0x3d7f680a	0.06235508
74	0xbe340ff5	-0.17584212
75	0xbf0a8a1a	-0.54116976
76	0x3e71ffba	0.23632708
77	0xbf6abb0f	-0.9169168
78	0xbe1d3380	-0.15351677
79	0x3d4ad415	0.049518663
80	0x3d789296	0.06068667
81	0x3df5feaa	0.12011464
82	0xbdba9fa6	-0.09112482
83	0x3de7b6dc	0.113141745
84	0xbe1c0d92	-0.15239552
85	0xbe4250e8	-0.18976176
86	0xbddc2d57	-0.107508354
87	0xbde6f29b	-0.11276742
88	0x3e91f0ff	0.28504178
89	0x3e988b08	0.29793572
90	0x3fab7d9b	1.3397707
91	0xbe3493e4	-0.17634541
92	0xbe38e03e	-0.18054292
93	0xbe749ae6	-0.23887214
94	0xbd72fdb4	-0.05932398
95	0xbdc9aca2	-0.0984738
96	0xbd24f6b8	-0.04027435
97	0xbe88cf52	-0.26720673
98	0x3d9c6e48	0.07638222
99	0x3de4b1a8	0.11166698
100	0x3e6cb202	0.2311478
101	0xbe71a433	-0.23597793
102	0x3dde0444	0.10840657
103	0x3e69f4ee	0.2284734
104	0xbe2e13a0	-0.16999674
105	0xbd040bbe	-0.03223776
106	0x3e913a1b	0.28364643
107	0xbc896a0c	-0.0167742
108	0xbe24ab4b	-0.16080968
109	0xbd4ecbe6	-0.05048742
110	0xbe555670	-0.20833755
111	0xbe264ad5	-0.16239484
112	0xbdfb15e1	-0.122600324
113	0xbe3b65b6	-0.18300518
114	0x3f08e808	0.5347905
115	0x3c4a49b7	0.012346677
116	0x3fa78d85	1.3090063
117	0x3e8ab31a	0.2708977
118	0x3e2b0e7b	0.16704743
119	0x3e63c579	0.22243299
120	0x3d8b3849	0.06797845
121	0xbcc2cac3	-0.023778325
122	0x3e340cc4	0.17582995
123	0xbc25d84d	-0.010122371
124	0xbea66e2b	-0.32505926
125	0x3dbca17f	0.092104904
126	0x3ea1e166	0.31617278
127	0xbd9f1101	-0.07766915
128	0xbd724f93	-0.05915792
129	0x3f7c939b	0.9866273
130	0xbd92dba1	-0.07170797
131	0xbc17f522	-0.009274753
132	0x3d6b80bf	0.05749583
133	0xbe4ba45d	-0.19886918
134	0x3e22a0e4	0.15881687
135	0x3e8376a7	0.25676462
136	0xbdf49c8e	-0.11943923
137	0x3e84991d	0.25898066
138	0x3e167913	0.14694624
139	0xbe78a971	-0.24283387
140	0x3de0a003	0.1096802
141	0x3f14b0f4	0.5808251
142	0xbf4981db	-0.7871377
143	0xbd48e114	-0.049042776
144	0x3e57721d	0.21039625
145	0x3ba1a6df	0.0049332227
146	0x3e845b26	0.2585079
147	0x3e96c114	0.29444182
148	0xbe3b5567	-0.18294297
149	0x3d8cafa6	0.0686944
150	0x3e4dcb87	0.20097171
151	0x3eea4386	0.4575464
152	0x3e6b479c	0.22976536
153	0xbc23dfb2	-0.010002064
154	0x3d45a61f	0.04825413
155	0x3fa9e2a4	1.327229
156	0xbe17f01b	-0.14837687
157	0x3df01189	0.117220946
158	0x3e2d774e	0.16940042
159	0xbbe557ba	-0.006998983
160	0x3e85ba30	0.26118612
161	0x3e2165e2	0.15761521
162	0x3ddfd712	0.10929693
163	0x3e771f2a	0.24132982
164	0xbe244bc5	-0.16044529
165	0xbe08cfe8	-0.1336056
166	0xbf00c1f3	-0.50295943
167	0x3d1335f3	0.03594012
168	0xbf7ff694	-0.99985623
169	0xbe596713	-0.21230726
170	0xbc1c7899	-0.009550237
171	0xbe614fa8	-0.22003043
172	0xbe1c875b	-0.15286009
173	0x3dfdaece	0.12386857
174	0xbe7c945d	-0.24665971
175	0xbe17a0cd	-0.14807434
176	0xbe7ddb7c	-0.24790758
177	0x3e43d53b	0.1912431
178	0x3e72d413	0.23713712
179	0x3e5fc437	0.21852194
180	0x3e342b13	0.17594557
181	0xbf205ead	-0.62644464
182	0xbdca08b1	-0.09864939
183	0xbdb73722	-0.089460626
184	0x3e6c8c23	0.23100333
185	0x3e831355	0.25600687
186	0xbe254e7d	-0.16143222
187	0x3c03d733	0.008046913
188	0xbde5bf11	-0.11218084
189	0x3d8ca1e5	0.068668164
190	0xbdb2ac3d	-0.08724258
191	0x3da8de6f	0.08245551
192	0xbeef50b6	-0.46741265
193	0xbc3a41e8	-0.011368252
194	0xbf8efdb2	-1.1171172
195	0xbe3d156a	-0.184652
196	0x3e8788fc	0.26471698
197	0x3e40c5bd	0.18825431
198	0xbcbeb66c	-0.023280345
199	0xbe114d23	-0.14189582
200	0x3e7403ef	0.23829626
201	0xbe38c559	-0.18044032
202	0xbe07f683	-0.1327763
203	0x3e4f71af	0.2025821
204	0xbec05e04	-0.37571728
205	0xbd4b101a	-0.049575903
206	0xbb034975	-0.0020032797
207	0xbfa0fa65	-1.2576414
208	0xbe83865c	-0.25688446
209	0x3e2164fe	0.15761182
210	0xbe8e1e5c	-0.27757537
211	0x3bcc318a	0.0062314915
212	0xbe592079	-0.21203794
213	0x3de3ef07	0.11129575
214	0x3e813cec	0.25241792
215	0xbd3702e5	-0.044680495
216	0x3dee6b8a	0.11641605
217	0x3e5e38a5	0.21701296
218	0xbe96b338	-0.29433608
219	0xbd6dd96c	-0.058068678
220	0x3e3116ef	0.17293905
221	0xbc812430	-0.015764326
222	0x3d8098ee	0.06279169
223	0x3e3cd467	0.184404
224	0x3df564cc	0.11982116
225	0x3e5e1749	0.2168857
226	0xbd843032	-0.06454505
227	0xbdec19b7	-0.11528342
228	0xbe5146a4	-0.20437104
229	0x3e95be67	0.29246828
230	0xbd89541a	-0.06705494
231	0x3e216089	0.15759481
232	0x3e83c575	0.25736585
233	0x3fa36191	1.276415
234	0x3e34fd93	0.17674856
235	0xbe2fb5b8	-0.17159164
236	0xbe08efb8	-0.13372695
237	0x3e792e43	0.24334054
238	0x3e110c68	0.14164889
239	0xbe53840e	-0.20655844
240	0xbd6b1722	-0.057395108
241	0x3e0c9cd7	0.13731705
242	0xbe4ed979	-0.20200147
243	0x3d66f704	0.056387916
244	0xbe6e198a	-0.2325193
245	0xbf134497	-0.57526535
246	0xbf5bbd2f	-0.85835546
247	0xbca950ec	-0.02066847
248	0xbd09051e	-0.033452146
249	0xbe6884e7	-0.22706948
250	0xbd878c09	-0.066185065
251	0x3e668acc	0.22513884
252	0x3e3d003d	0.18457122
253	0xbe880d3d	-0.265726
254	0xbda1d43b	-0.07901808
255	0xbe6dd768	-0.23226702

fc1.bias f4 [50]
0	0xbce4baa3	-0.027921027
1	0x3ebd3d99	0.36961058
2	0x3d094d54	0.03352101
3	0xbc798aa0	-0.015230805
4	0xbe0d1707	-0.13778315
5	0x3e036fc2	0.12835601
6	0xbe87e714	-0.26543486
7	0x3e1ecb58	0.15507257
8	0xbcaf90da	-0.021431375
9	0x3ddfabf6	0.10921471
10	0x3e1bd84a	0.15219226
11	0xbeb53d9b	-0.35398564
12	0x3df65834	0.12028542
13	0x3e8dafa8	0.27673078
14	0x3ed74810	0.42047167
15	0x3ebc6651	0.3679681
16	0xbe945d85	-0.289776
17	0xbb2feae2	-0.0026842882
18	0x3ec7a1ed	0.38990727
19	0x3ec6eb88	0.3885157
20	0x3d16daff	0.036829945
21	0x3e688cee	0.2271001
22	0x3dd164e3	0.10224321
23	0x3ee8827c	0.45412052
24	0xbc826192	-0.015915666
25	0x3e94e9e1	0.29084685
26	0xbd21215c	-0.039338455
27	0x3d59d154	0.053178146
28	0x3ec03a82	0.37544638
29	0x3ed5a01c	0.41723716
30	0x3c20f77f	0.009824633
31	0x3e412ed5	0.18865521
32	0xbe4b2d29	-0.19841446
33	0x3eec694a	0.4617408
34	0xbd4fbf66	-0.05071964
35	0xbdab01c2	-0.08349945
36	0x3d78427c	0.06061028
37	0x3db74b8a	0.08949955
38	0xbd6a20b8	-0.05716011
39	0xbe2fcb94	-0.17167503
40	0xbe103186	-0.14081392
41	0xbe8c266d	-0.27373067
42	0x3e86bee2	0.26317507
43	0xbd5c2df6	-0.05375477
44	0xbe809e7e	-0.2512092
45	0x3ee967d5	0.4558703
46	0xbdd3c37a	-0.103400186
47	0x3eb10272	0.34572178
48	0x3ec8e6f1	0.39238694
49	0x3db27026	0.08712797

fc2.weight f4 [50, 50]
0	0xbe0d9f4e	-0.13830301
1	0xbe08287f	-0.13296698
2	0xbcb87a11	-0.022519143
3	0xbd42e562	-0.047582038
4	0x3db8a0c5	0.09015039
5	0xbcf17464	-0.029474445
6	0x3d91ffb5	0.0712885
7	0x3e0bf813	0.13668852
8	0x3e345bcf	0.17613147
9	0xbc92f6dc	-0.017939977
10	0xbe51a30a	-0.2047235
11	0x3e15f28b	0.14643304
12	0x3da75d37	0.08172076
13	0xbe442ade	-0.19156978
14	0xbe27c32d	-0.16383047
15	0xbd1e2a45	-0.03861453
16	0x3d5913dc	0.052997455
17	0x3e4d1fac	0.20031613
18	0xbe18b5ae	-0.14913055
19	0xbe0f4b3f	-0.13993548
20	0xbd000653	-0.03125603
21	0xbe4028af	-0.1876552
22	0x3ddee97d	0.10884378
23	0xbc1ef200	-0.009701252
24	0xbe304c05	-0.17216499
25	0xbd4f6897	-0.050636854
26	0x3c22287f	0.00989735
27	0x3cc85d72	0.02445862
28	0xbd869e9b	-0.0657322
29	0xbdfb5857	-0.12272709
30	0x3d8f585b	0.06999274
31	0xbd4b04cf	-0.049565133
32	0xbd7279da	-0.059198238
33	0xbea59556	-0.32340497
34	0x3da4671a	0.080274776
35	0x3db6fab0	0.089345336
36	0x3e1a507b	0.15069763
37	0xbd08991e	-0.03334915
38	0xbd1ef9fc	-0.038812622
39	0x3d308645	0.0430968
40	0x3e205bbb	0.15659992
41	0x3aa6ed80	0.0012735575
42	0xbe348cfd	-0.17631908
43	0xbe580951	-0.21097304
44	0x3e5ba683	0.21450238
45	0xbe743e0f	-0.23851798
46	0xbc592696	-0.0132538285
47	0xbea533a1	-0.32265952
48	0xbe674d8c	-0.22588176
49	0xbe916944	-0.28400624
50	0x3e687cc6	0.22703847
51	0xbc625772	-0.013814794
52	0x3e2a2c50	0.16618466
53	0x3dedbe72	0.1160859
54	0x3dbd3813	0.09239211
55	0x3d585ade	0.052821033
56	0xbd5e2399	-0.054233167
57	0x3e0c7143	0.13715081
58	0xbe15e35d	-0.14637513
59	0xbc454be0	-0.012042016
60	0x3e906799	0.2820404
61	0x3d5014ba	0.050801016
62	0x3e33cec8	0.1755935
63	0x3e510379	0.20411481
64	0x3c44aa8a	0.01200355
65	0x3e375e09	0.17906965
66	0x3da0c269	0.07849581
67	0x3d075770	0.03304237
68	0x3e4112d9	0.18854846
69	0x3dc0bb4c	0.09410724
70	0xbddd0392	-0.107916966
71	0x3e49e764	0.19717175
72	0xbe07e639	-0.13271417
73	0x3da2dfba	0.07952829
74	0x3e44bbd2	0.19212273
75	0x3d601f93	0.05471761
76	0xbc51f05a	-0.012813652
77	0x3e0e3466	0.13887176
78	0x3e561446	0.20906171
79	0x3e196fd7	0.1498407
80	0xbbf78a2a	-0.0075543122
81	0x3dbd1e9b	0.09234353
82	0x3d40eccd	0.04710083
83	0x3e738ad9	0.23783435
84	0x3e45c985	0.19315155
85	0xbe1f9a99	-0.15586318
86	0xbd39cddc	-0.04536234
87	0x3de3b209	0.11117942
88	0xbe4c0c66	-0.19926605
89	0x3d9eb1cd	0.077487566
90	0x3da85da6	0.08220987
91	0x3e0dc047	0.13842879
92	0xbc8573cf	-0.016290573
93	0x3dedd93b	0.11613699
94	0xbe3ed832	-0.1863716
95	0x3e65e197	0.22449337
96	0x3cd84c77	0.026403649
97	0x3e670935	0.22562106
98	0x3e6bbbf4	0.23020917
99	0x3e9c2e73	0.30504188
100	0xbdbe67a1	-0.092971094
101	0x3dde8a63	0.10866239
102	0x3e091a61	0.13388969
103	0xbdaead8d	-0.08529196
104	0xbe18db79	-0.14927472
105	0x3d23fe1e	0.040037267
106	0xbdad0736	-0.08448641
107	0x3e0f4067	0.13989411
108	0xbd582f4e	-0.05277949
109	0xbd86d7f6	-0.0658416
110	0xbe0eeec9	-0.13958277
111	0xbdce1e23	-0.10064342
112	0xba78f434	-0.00094968383
113	0xbdb5d4fc	-0.08878514
114	0xbdc65529	-0.09684212
115	0xbd2cb9e1	-0.042169455
116	0xbd9669a0	-0.07344365
117	0xbdcd2c95	-0.10018269
118	0x3d69cee1	0.05708206
119	0xbe0a04df	-0.1347842
120	0x3d9890f9	0.07449526
121	0xbdf425d8	-0.119212806
122	0xbcfc2e20	-0.030783713
123	0xbc844e56	-0.016150635
124	0x3c1dc3b0	0.009629175
125	0xbd78e4de	-0.06076514
126	0xbdb1ae43	-0.08675816
127	0x3dd3b596	0.10337369
128	0x3d9c0017	0.07617205
129	0x3d5cb38c	0.053882167
130	0xbde602c1	-0.11230994
131	0x3d362c06	0.044475578
132	0xbd1fb187	-0.038987663
133	0xbe0c7644	-0.1371699
134	0x3d9dbd13	0.07702079
135	0x3dfda5f5	0.123851694
136	0xbd849396	-0.06473462
137	0xbc2d2c1f	-0.010569601
138	0x3e07d8b9	0.13266267
139	0x3dc440a0	0.09582639
140	0xbd35c798	-0.0443798
141	0x3db2ba14	0.08726898
142	0x3dba6777	0.091017656
143	0xbc1460e5	-0.009056305
144	0xbd9927d6	-0.07478301
145	0x3dfb3dab	0.122676216
146	0xbe043233	-0.12909774
147	0xbdb8e586	-0.09028153
148	0x3d4d66a8	0.05014673
149	0x3d983b9e	0.07433246
150	0xbbac08ee	-0.005250088
151	0x3cb55a64	0.022137828
152	0x3c8bbe6d	0.017058576
153	0xbd9609c2	-0.0732608
154	0xbd22039f	-0.039554235
155	0x3e33e9ef	0.17569707
156	0xbe4099da	-0.1880869
157	0x3d5b96b0	0.053610504
158	0x3d403750	0.04692775
159	0x3db7191e	0.089403376
160	0x3e120004	0.14257818
161	0x3cb3af28	0.021934107
162	0x3db7970f	0.08964359
163	0xbd203e68	-0.039122015
164	0x3d3eab6f	0.04655021
165	0x3dd58b22	0.10426928
166	0xbda7e6b0	-0.08198297
167	0x3d17bd95	0.037046034
168	0x3e1f9603	0.15584569
169	0x3e849032	0.25891262
170	0xbe18e790	-0.14932084
171	0x3daffa36	0.08592646
172	0xbd8aaf69	-0.06771738
173	0x3d920d66	0.07131462
174	0x3e5015c3	0.20320801
175	0xbd9e8f43	-0.07742169
176	0xbca0b045	-0.019615302
177	0xbc98d257	-0.018654985
178	0x3caaf53d	0.020868892
179	0xbdd1260e	-0.102123365
180	0x3e1c8b9b	0.1528763
181	0x3deabaed	0.114614345
182	0xbd9283b6	-0.07154028
183	0x3e829194	0.25501692
184	0x3e1a342c	0.15058964
185	0xbe066476	-0.1312426
186	0x3da6473e	0.08119057
187	0xbd5b0133	-0.05346794
188	0x3d6ecad3	0.058298897
189	0x3d61452e	0.054997616
190	0x3de0e9ec	0.10982117
191	0x3d694104	0.05694677
192	0xbc44b44b	-0.012005876
193	0x3e43d071	0.19122483
194	0xbdec8855	-0.11549441
195	0x3e09d3b6	0.13459668
196	0x3d9e77a2	0.07737662
197	0x3e923ab6	0.28560418
198	0x3e8f14dd	0.27945605
199	0x3d81e7ff	0.06343078
200	0xbded207d	-0.11578462
201	0x3e6a0d38	0.22856605
202	0x3da913d5	0.08255736
203	0x3da13c6c	0.07872853
204	0xbd5e62ca	-0.05429343
205	0x3d31822f	0.043337043
206	0x3c9373cc	0.017999552
207	0xbdc16ac4	-0.09444192
208	0xbdd14b23	-0.10219409
209	0xbd809b85	-0.06279663
210	0x3d723aeb	0.05913822
211	0xbd0dbe51	-0.034605328
212	0xbcbf46d9	-0.023349212
213	0x3db4423a	0.08801694
214	0xbce8c2ee	-0.028413262
215	0x3e470474	0.19435292
216	0x3cacdd28	0.02110155
217	0x3c948a67	0.018132402
218	0x3d3f193b	0.04665492
219	0x3d8a0680	0.06739521
220	0xbdb09fdb	-0.0862424
221	0x3e9b0d5e	0.30283636
222	0x3d9ec1ac	0.07751784
223	0x3d1af2ee	0.037829332
224	0x3e107708	0.14107907
225	0xbdcadd1b	-0.09905454
226	0xbd132f6b	-0.035933893
227	0x3d998fa4	0.074981004
228	0x3e292e1b	0.16521494
229	0x3d16c4e2	0.036808856
230	0xbdd13e23	-0.1021693
231	0x3df88c2e	0.12136112
232	0xbda655cd	-0.08121834
233	0x3daf3e97	0.0855686
234	0xbd9be4e0	-0.07612014
235	0xbd59c038	-0.05316183
236	0x3db53502	0.08848001
237	0x3e0adfc2	0.1356192
238	0xbc8e5bdc	-0.017377786
239	0x3cfa1efa	0.030532349
240	0x3c892564	0.016741462
241	0x3c04f300	0.008114576
242	0xbd4791dd	-0.04872309
243	0x3cb8473a	0.022494901
244	0xbe002d66	-0.12517318
245	0x3e8e7305	0.27822128
246	0xbd92da23	-0.071705125
247	0x3e96b1b5	0.29432455
248	0x3e01d3ef	0.12678503
249	0x3dd6b3a1	0.1048348
250	0xbd0034d6	-0.03130039
251	0xbd8dd26b	-0.069249
252	0xbd1d81d3	-0.03845389
253	0xbd647b5c	-0.055781707
254	0x3d8682e1	0.06567932
255	0x3d9fdd17	0.078058414

fc2.bias f4 [50]
0	0xbe1bc7fb	-0.15213005
1	0x3db55cda	0.08855601
2	0xbd344758	-0.04401335
3	0x3bc69c62	0.0060611228
4	0x3cde0a33	0.027104473
5	0x3ceaec61	0.028677167
6	0x3df6cce6	0.120508
7	0xbda83469	-0.082131214
8	0x3baa1e05	0.005191567
9	0x3e063fe7	0.13110314
10	0x3d4e9fe2	0.050445445
11	0xbc8ca927	-0.017170502
12	0x3e1674e5	0.14693029
13	0xbe14624e	-0.14490625
14	0x3d87b069	0.066254444
15	0xbd1d1c87	-0.038357284
16	0x3e4b5386	0.1985608
17	0x3dfb490a	0.122697905
18	0xbc5edd00	-0.013602495
19	0x3e4d1b73	0.20030002
20	0x3e1266e6	0.14297065
21	0xbd45f72f	-0.048331436
22	0xbe176ab5	-0.14786799
23	0x3c17e35e	0.009270517
24	0x3d8cb3f8	0.06870264
25	0xbd0d20e6	-0.034455203
26	0xbc3c81f2	-0.011505591
27	0xbe5095cb	-0.20369641
28	0x3e469c90	0.19395661
29	0xbdea3134	-0.11435166
30	0x3e9ec601	0.3101044
31	0x3dc6e352	0.09711327
32	0xbc75af80	-0.014995456
33	0xbdeb28a9	-0.11482365
34	0x3ddcc4bc	0.107797116
35	0xbd8e8a38	-0.06959957
36	0x3e6e19a2	0.23251966
37	0x3e0b50dd	0.13605066
38	0xbe71924e	-0.23590967
39	0xbdab7573	-0.08372011
40	0x3daa3444	0.0831075
41	0x3e8e28e5	0.27765575
42	0x3e6e905a	0.23297253
43	0xbdfd044a	-0.12354334
44	0xbe5399e0	-0.20664167
45	0x3e57c5fa	0.21071616
46	0x38c5f718	9.439717e-05
47	0xbd7c3366	-0.061572455
48	0xbc8bb112	-0.017052207
49	0xbdaeb686	-0.08530907

fc3.weight f4 [2, 50]
0	0x3d5e0ad3	0.05420954
1	0xbe50f528	-0.2040602
2	0x3d82a895	0.06379811
3	0xbdf59a35	-0.11992303
4	0xbe446e81	-0.19182779
5	0xbcc46f64	-0.023978896
6	0xbe0d4dab	-0.13799159
7	0x3d9afe4d	0.07568035
8	0x3dac9df5	0.084285654
9	0x3db156a2	0.08659102
10	0x3ddfe3d1	0.109321244
11	0x3c99e39f	0.018785296
12	0xbdc0648d	-0.093941785
13	0xbe075047	-0.13214217
14	0x3b86935d	0.0041069225
15	0x3ec98d39	0.39365557
16	0xbe16ae79	-0.14714994
17	0xbdd2cb83	-0.10292723
18	0x3dc4855a	0.09595747
19	0xbe270f83	-0.16314511
20	0xbe6080ce	-0.21924135
21	0xbd9b6ee4	-0.0758951
22	0x3e84d0dc	0.25940597
23	0xbc871367	-0.016488744
24	0xbe03101a	-0.12799111
25	0x3e377a54	0.17917758
26	0xbdc9da33	-0.09856071
27	0x3ddbad2d	0.1072639
28	0xbe829530	-0.25504446
29	0x3e374e25	0.17900904
30	0xbeba7420	-0.3641672
31	0xbe5d7e92	-0.21630314
32	0x3dc1d8a0	0.09465146
33	0x3e679870	0.22616744
34	0xbe4c1a54	-0.19931918
35	0x3d4080fb	0.046998005
36	0xbdf4b65e	-0.11948846
37	0xbdd38410	-0.10327923
38	0x3e2a402c	0.16626042
39	0x3e9cb700	0.30608368
40	0xbe3a24c3	-0.18178086
41	0xbde16633	-0.11005821
42	0xbe20a238	-0.15686882
43	0xbcc89269	-0.024483876
44	0x3e80e539	0.25174883
45	0xbe7b088d	-0.2451498
46	0x3e4c524f	0.19953273
47	0xbda1d1e4	-0.079013616
48	0x3e73b187	0.2379819
49	0xbd367f14	-0.044554785
50	0xbe7f5e67	-0.24938355
51	0x3ea9398b	0.33051714
52	0x3d3114cb	0.04323272
53	0x3e35c970	0.17752624
54	0x3e9d78f6	0.30756348
55	0xbde1ed9a	-0.11031647
56	0x3e621df4	0.22081739
57	0xbdd6e04f	-0.10492002
58	0xbe648183	-0.2231503
59	0xbdad0396	-0.084479496
60	0x3d8a5a21	0.06755472
61	0xbdcb265d	-0.099194266
62	0x3e1d8811	0.15383936
63	0x3dfe93f0	0.124305606
64	0xbd4ea90f	-0.050454196
65	0xbe58230c	-0.2110712
66	0x3e516f5c	0.20452636
67	0x3dcb7180	0.09933758
68	0xbd8d670b	-0.069044195
69	0x3e7dd148	0.24786866
70	0x3e0ce4db	0.13759176
71	0x3decc971	0.115618594
72	0xbe7ec99d	-0.24881597
73	0x3dd61af9	0.104543634
74	0x3d3f5b16	0.046717726
75	0xbe886325	-0.2663814
76	0x3e2d4d17	0.16923939
77	0xbe96d0bb	-0.29456124
78	0x3e669f02	0.22521594
79	0xbdcb111c	-0.09915373
80	0x3e86f942	0.26362044
81	0x3dff0a15	0.12453095
82	0x3cca4bf8	0.024694428
83	0xbe617f7d	-0.22021289
84	0x3e572f6c	0.21014184
85	0xbe4e2bdf	-0.20133923
86	0x3e75f244	0.24018198
87	0x3e881dd5	0.2658526
88	0xbe064103	-0.13110738
89	0xbeacb08e	-0.3372845
90	0x3e93e66f	0.28886744
91	0x3e1d6aa8	0.15372717
92	0x3e90e792	0.28301674
93	0xbe734a21	-0.23758747
94	0xbc2afdd2	-0.010436492
95	0x3e83c3a6	0.25735205
96	0xbd9c7578	-0.07639593
97	0xbdf4f9fa	-0.11961742
98	0xbe30c1cd	-0.17261429
99	0xbb8ab780	-0.0042333007

fc3.bias f4 [2]
0	0x3c95ee48	0.018302098
1	0x3e296c29	0.16545166
